…
        "print(\"Testing loss, accuracy after pretraining from X_test and y_test:\", pre_loss, pre_acc)\n",
        "print('\\n Completed in: {:0.2f}s'.format(time()-t00))"
      ],
      "execution_count": 4,
      "outputs": [
        {
          "output_type": "stream",
          "text": [
            "X Reference Dataset Shape:  (60000, 991)\n",
            "y Reference Dataset Shape:  (60000,)\n",
            "X Test Dataset Shape:  (3000, 1000)\n",
            "y Test Dataset Shape:  (3000,)\n",
            "X Finetuning Dataset Shape:  (3000, 1000)\n",
            "y Finetuning Dataset Shape:  (3000,)\n",
            "Resnet Block\n",
            "*ConvGroup (None, 496, 25) 25.0\n",
            "*ConvGroup (None, 496, 25) 25.0\n",
            "*ConvGroup (None, 496, 25) 25.0\n",
            "*ConvGroup (None, 496, 100) 100.0\n",
            "*Shortcut shape (None, 496, 100)\n",
            "Resnet Block\n",
            "*ConvGroup (None, 496, 25) 25.0\n",
            "*ConvGroup (None, 496, 25) 25.0\n",
            "*ConvGroup (None, 496, 25) 25.0\n",
            "*ConvGroup (None, 496, 100) 100.0\n",
            "*Shortcut shape (None, 496, 100)\n",
            "Resnet Block\n",
            "*ConvGroup (None, 496, 25) 25.0\n",
            "*ConvGroup (None, 496, 25) 25.0\n",
            "*ConvGroup (None, 496, 25) 25.0\n",
            "*ConvGroup (None, 496, 100) 100.0\n",
            "*Shortcut shape (None, 496, 100)\n",
            "Resnet Block\n",
            "*ConvGroup (None, 496, 25) 25.0\n",
            "*ConvGroup (None, 496, 25) 25.0\n",
            "*ConvGroup (None, 496, 25) 25.0\n",
            "*ConvGroup (None, 496, 100) 100.0\n",
            "*Shortcut shape (None, 496, 100)\n",
            "Resnet Block\n",
            "*ConvGroup (None, 496, 25) 25.0\n",
            "*ConvGroup (None, 496, 25) 25.0\n",
            "*ConvGroup (None, 496, 25) 25.0\n",
            "*ConvGroup (None, 496, 100) 100.0\n",
            "*Shortcut shape (None, 496, 100)\n",
            "Resnet Block\n",
            "*ConvGroup (None, 496, 25) 25.0\n",
            "*ConvGroup (None, 496, 25) 25.0\n",
            "*ConvGroup (None, 496, 25) 25.0\n",
            "*ConvGroup (None, 496, 100) 100.0\n",
            "*Shortcut shape (None, 496, 100)\n",
            "Epoch 1/3\n",
            "594/594 [==============================] - 29s 48ms/step - loss: 0.6363 - accuracy: 0.8384\n",
            "Epoch 2/3\n",
            "594/594 [==============================] - 29s 48ms/step - loss: 0.3420 - accuracy: 0.9162\n",
            "Epoch 3/3\n",
            "594/594 [==============================] - 29s 48ms/step - loss: 0.3111 - accuracy: 0.9228\n",
…
            "__________________________________________________________________________________________________\n",
            "Layer (type)                    Output Shape         Param #     Connected to                     \n",
            "==================================================================================================\n",
            "input_2 (InputLayer)            [(None, 991, 1)]     0                                            \n",
            "__________________________________________________________________________________________________\n",
            "conv1d_26 (Conv1D)              (None, 496, 64)      320         input_2[0][0]                    \n",
            "__________________________________________________________________________________________________\n",
            "batch_normalization_28 (BatchNo (None, 496, 64)      256         conv1d_26[0][0]                  \n",
            "__________________________________________________________________________________________________\n",
            "activation_27 (Activation)      (None, 496, 64)      0           batch_normalization_28[0][0]     \n",
            "__________________________________________________________________________________________________\n",
            "batch_normalization_29 (BatchNo (None, 496, 64)      256         activation_27[0][0]              \n",
            "__________________________________________________________________________________________________\n",
            "activation_28 (Activation)      (None, 496, 64)      0           batch_normalization_29[0][0]     \n",
            "__________________________________________________________________________________________________\n",
            "conv1d_27 (Conv1D)              (None, 496, 25)      1600        activation_28[0][0]              \n",
            "__________________________________________________________________________________________________\n",
            "dropout_24 (Dropout)            (None, 496, 25)      0           conv1d_27[0][0]                  \n",
            "__________________________________________________________________________________________________\n",
            "batch_normalization_30 (BatchNo (None, 496, 25)      100         dropout_24[0][0]                 \n",
            "__________________________________________________________________________________________________\n",
            "activation_29 (Activation)      (None, 496, 25)      0           batch_normalization_30[0][0]     \n",
            "__________________________________________________________________________________________________\n",
            "conv1d_28 (Conv1D)              (None, 496, 25)      625         activation_29[0][0]              \n",
            "__________________________________________________________________________________________________\n",
            "dropout_25 (Dropout)            (None, 496, 25)      0           conv1d_28[0][0]                  \n",
            "__________________________________________________________________________________________________\n",
            "batch_normalization_31 (BatchNo (None, 496, 25)      100         dropout_25[0][0]                 \n",
            "__________________________________________________________________________________________________\n",
            "activation_30 (Activation)      (None, 496, 25)      0           batch_normalization_31[0][0]     \n",
            "__________________________________________________________________________________________________\n",
            "conv1d_29 (Conv1D)              (None, 496, 25)      625         activation_30[0][0]              \n",
            "__________________________________________________________________________________________________\n",
            "dropout_26 (Dropout)            (None, 496, 25)      0           conv1d_29[0][0]                  \n",
            "__________________________________________________________________________________________________\n",
            "batch_normalization_32 (BatchNo (None, 496, 25)      100         dropout_26[0][0]                 \n",
            "__________________________________________________________________________________________________\n",
            "activation_31 (Activation)      (None, 496, 25)      0           batch_normalization_32[0][0]     \n",
            "__________________________________________________________________________________________________\n",
            "conv1d_30 (Conv1D)              (None, 496, 100)     2500        activation_31[0][0]              \n",
            "__________________________________________________________________________________________________\n",
            "dropout_27 (Dropout)            (None, 496, 100)     0           conv1d_30[0][0]                  \n",
            "__________________________________________________________________________________________________\n",
            "conv1d_31 (Conv1D)              (None, 496, 100)     6400        activation_27[0][0]              \n",
            "__________________________________________________________________________________________________\n",
            "add_6 (Add)                     (None, 496, 100)     0           dropout_27[0][0]                 \n",
            "                                                                 conv1d_31[0][0]                  \n",
            "__________________________________________________________________________________________________\n",
            "batch_normalization_33 (BatchNo (None, 496, 100)     400         add_6[0][0]                      \n",
            "__________________________________________________________________________________________________\n",
            "activation_32 (Activation)      (None, 496, 100)     0           batch_normalization_33[0][0]     \n",
            "__________________________________________________________________________________________________\n",
            "conv1d_32 (Conv1D)              (None, 496, 25)      2500        activation_32[0][0]              \n",
            "__________________________________________________________________________________________________\n",
            "dropout_28 (Dropout)            (None, 496, 25)      0           conv1d_32[0][0]                  \n",
            "__________________________________________________________________________________________________\n",
            "batch_normalization_34 (BatchNo (None, 496, 25)      100         dropout_28[0][0]                 \n",
            "__________________________________________________________________________________________________\n",
            "activation_33 (Activation)      (None, 496, 25)      0           batch_normalization_34[0][0]     \n",
            "__________________________________________________________________________________________________\n",
            "conv1d_33 (Conv1D)              (None, 496, 25)      625         activation_33[0][0]              \n",
            "__________________________________________________________________________________________________\n",
            "dropout_29 (Dropout)            (None, 496, 25)      0           conv1d_33[0][0]                  \n",
            "__________________________________________________________________________________________________\n",
            "batch_normalization_35 (BatchNo (None, 496, 25)      100         dropout_29[0][0]                 \n",
            "__________________________________________________________________________________________________\n",
            "activation_34 (Activation)      (None, 496, 25)      0           batch_normalization_35[0][0]     \n",
            "__________________________________________________________________________________________________\n",
            "conv1d_34 (Conv1D)              (None, 496, 25)      625         activation_34[0][0]              \n",
            "__________________________________________________________________________________________________\n",
            "dropout_30 (Dropout)            (None, 496, 25)      0           conv1d_34[0][0]                  \n",
            "__________________________________________________________________________________________________\n",
            "batch_normalization_36 (BatchNo (None, 496, 25)      100         dropout_30[0][0]                 \n",
            "__________________________________________________________________________________________________\n",
            "activation_35 (Activation)      (None, 496, 25)      0           batch_normalization_36[0][0]     \n",
            "__________________________________________________________________________________________________\n",
            "conv1d_35 (Conv1D)              (None, 496, 100)     2500        activation_35[0][0]              \n",
            "__________________________________________________________________________________________________\n",
            "dropout_31 (Dropout)            (None, 496, 100)     0           conv1d_35[0][0]                  \n",
            "__________________________________________________________________________________________________\n",
            "add_7 (Add)                     (None, 496, 100)     0           dropout_31[0][0]                 \n",
            "                                                                 add_6[0][0]                      \n",
            "__________________________________________________________________________________________________\n",
            "batch_normalization_37 (BatchNo (None, 496, 100)     400         add_7[0][0]                      \n",
            "__________________________________________________________________________________________________\n",
            "activation_36 (Activation)      (None, 496, 100)     0           batch_normalization_37[0][0]     \n",
            "__________________________________________________________________________________________________\n",
            "conv1d_36 (Conv1D)              (None, 496, 25)      2500        activation_36[0][0]              \n",
            "__________________________________________________________________________________________________\n",
            "dropout_32 (Dropout)            (None, 496, 25)      0           conv1d_36[0][0]                  \n",
            "__________________________________________________________________________________________________\n",
            "batch_normalization_38 (BatchNo (None, 496, 25)      100         dropout_32[0][0]                 \n",
            "__________________________________________________________________________________________________\n",
            "activation_37 (Activation)      (None, 496, 25)      0           batch_normalization_38[0][0]     \n",
            "__________________________________________________________________________________________________\n",
            "conv1d_37 (Conv1D)              (None, 496, 25)      625         activation_37[0][0]              \n",
            "__________________________________________________________________________________________________\n",
            "dropout_33 (Dropout)            (None, 496, 25)      0           conv1d_37[0][0]                  \n",
            "__________________________________________________________________________________________________\n",
            "batch_normalization_39 (BatchNo (None, 496, 25)      100         dropout_33[0][0]                 \n",
            "__________________________________________________________________________________________________\n",
            "activation_38 (Activation)      (None, 496, 25)      0           batch_normalization_39[0][0]     \n",
            "__________________________________________________________________________________________________\n",
            "conv1d_38 (Conv1D)              (None, 496, 25)      625         activation_38[0][0]              \n",
            "__________________________________________________________________________________________________\n",
            "dropout_34 (Dropout)            (None, 496, 25)      0           conv1d_38[0][0]                  \n",
            "__________________________________________________________________________________________________\n",
            "batch_normalization_40 (BatchNo (None, 496, 25)      100         dropout_34[0][0]                 \n",
            "__________________________________________________________________________________________________\n",
            "activation_39 (Activation)      (None, 496, 25)      0           batch_normalization_40[0][0]     \n",
            "__________________________________________________________________________________________________\n",
            "conv1d_39 (Conv1D)              (None, 496, 100)     2500        activation_39[0][0]              \n",
            "__________________________________________________________________________________________________\n",
            "dropout_35 (Dropout)            (None, 496, 100)     0           conv1d_39[0][0]                  \n",
            "__________________________________________________________________________________________________\n",
            "add_8 (Add)                     (None, 496, 100)     0           dropout_35[0][0]                 \n",
            "                                                                 add_7[0][0]                      \n",
            "__________________________________________________________________________________________________\n",
            "batch_normalization_41 (BatchNo (None, 496, 100)     400         add_8[0][0]                      \n",
            "__________________________________________________________________________________________________\n",
            "activation_40 (Activation)      (None, 496, 100)     0           batch_normalization_41[0][0]     \n",
            "__________________________________________________________________________________________________\n",
            "conv1d_40 (Conv1D)              (None, 496, 25)      2500        activation_40[0][0]              \n",
            "__________________________________________________________________________________________________\n",
            "dropout_36 (Dropout)            (None, 496, 25)      0           conv1d_40[0][0]                  \n",
            "__________________________________________________________________________________________________\n",
            "batch_normalization_42 (BatchNo (None, 496, 25)      100         dropout_36[0][0]                 \n",
            "__________________________________________________________________________________________________\n",
            "activation_41 (Activation)      (None, 496, 25)      0           batch_normalization_42[0][0]     \n",
            "__________________________________________________________________________________________________\n",
            "conv1d_41 (Conv1D)              (None, 496, 25)      625         activation_41[0][0]              \n",
            "__________________________________________________________________________________________________\n",
            "dropout_37 (Dropout)            (None, 496, 25)      0           conv1d_41[0][0]                  \n",
            "__________________________________________________________________________________________________\n",
            "batch_normalization_43 (BatchNo (None, 496, 25)      100         dropout_37[0][0]                 \n",
            "__________________________________________________________________________________________________\n",
            "activation_42 (Activation)      (None, 496, 25)      0           batch_normalization_43[0][0]     \n",
            "__________________________________________________________________________________________________\n",
            "conv1d_42 (Conv1D)              (None, 496, 25)      625         activation_42[0][0]              \n",
            "__________________________________________________________________________________________________\n",
            "dropout_38 (Dropout)            (None, 496, 25)      0           conv1d_42[0][0]                  \n",
            "__________________________________________________________________________________________________\n",
            "batch_normalization_44 (BatchNo (None, 496, 25)      100         dropout_38[0][0]                 \n",
            "__________________________________________________________________________________________________\n",
            "activation_43 (Activation)      (None, 496, 25)      0           batch_normalization_44[0][0]     \n",
            "__________________________________________________________________________________________________\n",
            "conv1d_43 (Conv1D)              (None, 496, 100)     2500        activation_43[0][0]              \n",
            "__________________________________________________________________________________________________\n",
            "dropout_39 (Dropout)            (None, 496, 100)     0           conv1d_43[0][0]                  \n",
            "__________________________________________________________________________________________________\n",
            "add_9 (Add)                     (None, 496, 100)     0           dropout_39[0][0]                 \n",
            "                                                                 add_8[0][0]                      \n",
            "__________________________________________________________________________________________________\n",
            "batch_normalization_45 (BatchNo (None, 496, 100)     400         add_9[0][0]                      \n",
            "__________________________________________________________________________________________________\n",
            "activation_44 (Activation)      (None, 496, 100)     0           batch_normalization_45[0][0]     \n",
            "__________________________________________________________________________________________________\n",
            "conv1d_44 (Conv1D)              (None, 496, 25)      2500        activation_44[0][0]              \n",
            "__________________________________________________________________________________________________\n",
            "dropout_40 (Dropout)            (None, 496, 25)      0           conv1d_44[0][0]                  \n",
            "__________________________________________________________________________________________________\n",
            "batch_normalization_46 (BatchNo (None, 496, 25)      100         dropout_40[0][0]                 \n",
            "__________________________________________________________________________________________________\n",
            "activation_45 (Activation)      (None, 496, 25)      0           batch_normalization_46[0][0]     \n",
            "__________________________________________________________________________________________________\n",
            "conv1d_45 (Conv1D)              (None, 496, 25)      625         activation_45[0][0]              \n",
            "__________________________________________________________________________________________________\n",
            "dropout_41 (Dropout)            (None, 496, 25)      0           conv1d_45[0][0]                  \n",
            "__________________________________________________________________________________________________\n",
            "batch_normalization_47 (BatchNo (None, 496, 25)      100         dropout_41[0][0]                 \n",
            "__________________________________________________________________________________________________\n",
            "activation_46 (Activation)      (None, 496, 25)      0           batch_normalization_47[0][0]     \n",
            "__________________________________________________________________________________________________\n",
            "conv1d_46 (Conv1D)              (None, 496, 25)      625         activation_46[0][0]              \n",
            "__________________________________________________________________________________________________\n",
            "dropout_42 (Dropout)            (None, 496, 25)      0           conv1d_46[0][0]                  \n",
            "__________________________________________________________________________________________________\n",
            "batch_normalization_48 (BatchNo (None, 496, 25)      100         dropout_42[0][0]                 \n",
            "__________________________________________________________________________________________________\n",
            "activation_47 (Activation)      (None, 496, 25)      0           batch_normalization_48[0][0]     \n",
            "__________________________________________________________________________________________________\n",
            "conv1d_47 (Conv1D)              (None, 496, 100)     2500        activation_47[0][0]              \n",
            "__________________________________________________________________________________________________\n",
            "dropout_43 (Dropout)            (None, 496, 100)     0           conv1d_47[0][0]                  \n",
            "__________________________________________________________________________________________________\n",
            "add_10 (Add)                    (None, 496, 100)     0           dropout_43[0][0]                 \n",
            "                                                                 add_9[0][0]                      \n",
            "__________________________________________________________________________________________________\n",
            "batch_normalization_49 (BatchNo (None, 496, 100)     400         add_10[0][0]                     \n",
            "__________________________________________________________________________________________________\n",
            "activation_48 (Activation)      (None, 496, 100)     0           batch_normalization_49[0][0]     \n",
            "__________________________________________________________________________________________________\n",
            "conv1d_48 (Conv1D)              (None, 496, 25)      2500        activation_48[0][0]              \n",
            "__________________________________________________________________________________________________\n",
            "dropout_44 (Dropout)            (None, 496, 25)      0           conv1d_48[0][0]                  \n",
            "__________________________________________________________________________________________________\n",
            "batch_normalization_50 (BatchNo (None, 496, 25)      100         dropout_44[0][0]                 \n",
            "__________________________________________________________________________________________________\n",
            "activation_49 (Activation)      (None, 496, 25)      0           batch_normalization_50[0][0]     \n",
            "__________________________________________________________________________________________________\n",
            "conv1d_49 (Conv1D)              (None, 496, 25)      625         activation_49[0][0]              \n",
            "__________________________________________________________________________________________________\n",
            "dropout_45 (Dropout)            (None, 496, 25)      0           conv1d_49[0][0]                  \n",
            "__________________________________________________________________________________________________\n",
            "batch_normalization_51 (BatchNo (None, 496, 25)      100         dropout_45[0][0]                 \n",
            "__________________________________________________________________________________________________\n",
            "activation_50 (Activation)      (None, 496, 25)      0           batch_normalization_51[0][0]     \n",
            "__________________________________________________________________________________________________\n",
            "conv1d_50 (Conv1D)              (None, 496, 25)      625         activation_50[0][0]              \n",
            "__________________________________________________________________________________________________\n",
            "dropout_46 (Dropout)            (None, 496, 25)      0           conv1d_50[0][0]                  \n",
            "__________________________________________________________________________________________________\n",
            "batch_normalization_52 (BatchNo (None, 496, 25)      100         dropout_46[0][0]                 \n",
            "__________________________________________________________________________________________________\n",
            "activation_51 (Activation)      (None, 496, 25)      0           batch_normalization_52[0][0]     \n",
            "__________________________________________________________________________________________________\n",
            "conv1d_51 (Conv1D)              (None, 496, 100)     2500        activation_51[0][0]              \n",
            "__________________________________________________________________________________________________\n",
            "dropout_47 (Dropout)            (None, 496, 100)     0           conv1d_51[0][0]                  \n",
            "__________________________________________________________________________________________________\n",
            "add_11 (Add)                    (None, 496, 100)     0           dropout_47[0][0]                 \n",
            "                                                                 add_10[0][0]                     \n",
            "__________________________________________________________________________________________________\n",
            "batch_normalization_53 (BatchNo (None, 496, 100)     400         add_11[0][0]                     \n",
            "__________________________________________________________________________________________________\n",
            "activation_52 (Activation)      (None, 496, 100)     0           batch_normalization_53[0][0]     \n",
            "__________________________________________________________________________________________________\n",
            "average_pooling1d_1 (AveragePoo (None, 62, 100)      0           activation_52[0][0]              \n",
            "__________________________________________________________________________________________________\n",
            "flatten_1 (Flatten)             (None, 6200)         0           average_pooling1d_1[0][0]        \n",
            "__________________________________________________________________________________________________\n",
            "dense_1 (Dense)                 (None, 30)           186030      flatten_1[0][0]                  \n",
            "__________________________________________________________________________________________________\n",
            "activation_53 (Activation)      (None, 30)           0           dense_1[0][0]                    \n",
            "==================================================================================================\n",
            "Total params: 234,062\n",
            "Trainable params: 231,706\n",
            "Non-trainable params: 2,356\n",
            "__________________________________________________________________________________________________\n",
…
